…
    "# data_test = np.squeeze(np.moveaxis(data_test, -1, 0))\n",
    "# print(data_train.shape)\n",
    "# print(data_test.shape)"
   ]
  },
  {
   "cell_type": "code",
   "execution_count": 58,
   "metadata": {},
   "outputs": [
    {
     "name": "stdout",
     "output_type": "stream",
     "text": [
      "Model: \"sequential\"\n",
      "_________________________________________________________________\n",
      " Layer (type)                Output Shape              Param #   \n",
      "=================================================================\n",
      " locally_connected1d (Locall  (None, 79, 128)          68266112  \n",
      " yConnected1D)                                                   \n",
      "                                                                 \n",
      " flatten (Flatten)           (None, 10112)             0         \n",
      "                                                                 \n",
      " dense (Dense)               (None, 784)               7928592   \n",
      "                                                                 \n",
      " dropout (Dropout)           (None, 784)               0         \n",
      "                                                                 \n",
      " dense_1 (Dense)             (None, 784)               615440    \n",
      "                                                                 \n",
      " dropout_1 (Dropout)         (None, 784)               0         \n",
      "                                                                 \n",
      " dense_2 (Dense)             (None, 28)                21980     \n",
      "                                                                 \n",
      " dropout_2 (Dropout)         (None, 28)                0         \n",
      "                                                                 \n",
      " dense_3 (Dense)             (None, 2)                 58        \n",
      "                                                                 \n",
      "=================================================================\n",
      "Total params: 76,832,182\n",
      "Trainable params: 76,832,182\n",
      "Non-trainable params: 0\n",
      "_________________________________________________________________\n"
     ]
    }
   ],
   "source": [
    "\n",
    "\n",
…
